category-mask-android/main/assets/hair_segmenter.tflite (tflite, 781618 bytes, 346 tensors)

conv2d/Kernel f4 [8, 2, 2, 4]
0	0xbf1c2de1	-0.61007506
1	0xbdd3161b	-0.10306951
2	0xbe8a17be	-0.2697124
3	0x3b568aaf	0.003273647
4	0x3e811e4a	0.2521842
5	0x3fcab94a	1.5837796
6	0x3e47a6f6	0.19497284
7	0xbc8a7382	-0.016900782
8	0xbf817d34	-1.0116334
9	0x3e815d67	0.25266573
10	0xbfbe9bd6	-1.4891307
11	0xbb998bcc	-0.0046858545
12	0xbeb1695a	-0.3465069
13	0x3f902e4c	1.1264129
14	0x3e52c23f	0.20581912
15	0xbc891402	-0.016733173
16	0x3da58cc2	0.08083488
17	0xbefbfd09	-0.49216488
18	0xbe18c2c5	-0.14918049
19	0x3d3baf70	0.045821607
20	0x3f1c156a	0.60970175
21	0xbf86b250	-1.0523167
22	0xbe90fa89	-0.28316143
23	0x3d5f2dd3	0.05448706
24	0x3fa330ad	1.274923
25	0x3e1bd571	0.1521814
26	0x3f33549e	0.7005099
27	0x3d3c7650	0.04601127
28	0x3f80942c	1.0045218
29	0x3e184720	0.14870882
30	0x3eb8a443	0.36062822
31	0x3d3a4006	0.045471214
32	0xbf662150	-0.8989458
33	0xbea9328c	-0.33046377
34	0x3dd953bb	0.106116734
35	0x3dbe6bdb	0.092979155
36	0xbf9e852c	-1.2384391
37	0xbde64e2d	-0.112453796
38	0x3eadc722	0.3394099
39	0x3dc5931d	0.096472
40	0xbfcd5682	-1.6042025
41	0xbd722a30	-0.059122264
42	0x3f2d7869	0.67761856
43	0x3da62b5a	0.081137374
44	0xc0117d7d	-2.2732842
45	0xbdeb03fa	-0.11475368
46	0x3f23aebd	0.63938504
47	0x3db26178	0.08709997
48	0x3f93a805	1.153565
49	0xbfcc938b	-1.5982527
50	0x3f493598	0.785974
51	0xbe16e420	-0.1473546
52	0x3e8d4a0e	0.27595562
53	0xbfedbd75	-1.8573443
54	0x3d8e9017	0.06961077
55	0xbe3e52d8	-0.1858629
56	0xbe91816b	-0.2841905
57	0xc00e3c15	-2.222417
58	0x3eb50ec0	0.35362816
59	0xbdea277e	-0.11433314
60	0x3ecf3ba5	0.40475193
61	0xc04b6f61	-3.178673
62	0x3f596159	0.84914166
63	0xbe09ae50	-0.13445401
64	0x3e5d7af9	0.21628942
65	0x3e4515b5	0.19246562
66	0xbf3cb13f	-0.73707956
67	0x3d9bcd84	0.07607558
68	0x3fae7c16	1.3631618
69	0x3ecdaba1	0.40170005
70	0xbe0d142f	-0.1377723
71	0x3deada3c	0.11467406
72	0x3f05521e	0.52078426
73	0xbfd02f50	-1.6264439
74	0xbfa54a7f	-1.2913359
75	0x3d89bb0c	0.067251295
76	0x3d8d579d	0.069014765
77	0xbf37dda2	-0.7182256
78	0xbf6b4b67	-0.9191193
79	0x3e031315	0.12800248
80	0xbfaf829a	-1.3711731
81	0x3f31abe4	0.6940291
82	0xbfdea7ed	-1.7394997
83	0xbce18a9e	-0.027531918
84	0xbf451d69	-0.76998
85	0xbf3e29b9	-0.74282414
86	0xc00a872d	-2.1645005
87	0xbdc04a78	-0.09389204
88	0x3e8301c9	0.255873
89	0x4012c180	2.2930603
90	0xbf423ec7	-0.7587704
91	0xbc470021	-0.012146027
92	0x3e766d0a	0.24065033
93	0x3fea65d9	1.8312331
94	0xbf810adc	-1.0081439
95	0xbda819c9	-0.08208043
96	0x3f5a395e	0.85243785
97	0x40070eda	2.1102815
98	0xbd9105c7	-0.0708118
99	0xbd3c7d94	-0.046018198
100	0x3efcfbae	0.49410766
101	0x40122a9a	2.2838502
102	0xbf856148	-1.0420313
103	0xbdad9fea	-0.08477767
104	0xbfc4eb53	-1.5384315
105	0x3f092268	0.53568125
106	0xbea0b6c0	-0.31389427
107	0xbc9b0120	-0.018921435
108	0xbfc729f1	-1.5559675
109	0x3eddcf68	0.433223
110	0xbf44d617	-0.76889175
111	0xbcb539f0	-0.022122353
112	0xbeaa95df	-0.33317468
113	0xbed2a2f3	-0.41139945
114	0x3e39805c	0.18115371
115	0x3c5c8de4	0.013461564
116	0xbed38771	-0.4131427
117	0xbe8df645	-0.2772695
118	0xbca428e2	-0.020039026
119	0xbd5ce892	-0.053932734
120	0x3e9b1c0e	0.30294842
121	0x3e5c1f27	0.21496259
122	0x3f70a6ca	0.940045
123	0xbd12a5f2	-0.03580279
124	0x3e41bc7e	0.1891956
125	0xbdce8d17	-0.100855045
126	0x3f405457	0.7512869
127	0xbca65c2f	-0.020307628

conv2d/Bias f4 [8]
0	0x3ecf06b2	0.40434796
1	0xbfca7c2a	-1.5819142
2	0x40030194	2.0469713
3	0x3fd373da	1.651973
4	0x3ed5302c	0.41638315
5	0x3f80ad75	1.0052935
6	0xbf9325ad	-1.1495873
7	0xbeb6a1f7	-0.35670444

p_re_lu/Alpha f4 [1, 1, 8]
0	0xbe6c19ab	-0.23056667
1	0x3f19c245	0.60062057
2	0x3f43c7f2	0.7647697
3	0x3f2585e7	0.64657444
4	0x3f26a798	0.6509948
5	0x3f317bc2	0.69329464
6	0x3f5e8db3	0.86934966
7	0xbda3e5e0	-0.080028296

conv2d_1/Kernel f4 [32, 2, 2, 8]
0	0xbc8bbcbb	-0.017057767
1	0xbe1de101	-0.15417863
2	0xbcd8c75e	-0.026462253
3	0xbccc494b	-0.024937293
4	0x3db9bc2e	0.090690956
5	0x3d49c39a	0.049258806
6	0xbd98b2d3	-0.07455983
7	0xbd2cf4a9	-0.042225514
8	0xbefb93f0	-0.49136305
9	0xbe48ad4f	-0.19597362
10	0x3e5783e6	0.21046409
11	0x3df73786	0.12071137
12	0xbd93ae41	-0.07210971
13	0x3e84e3bb	0.25954995
14	0xbe9f72dc	-0.31142318
15	0x3d381d9d	0.044950116
16	0x3d475ebd	0.048674334
17	0xbe24e088	-0.16101277
18	0xbe3492dd	-0.17634149
19	0xbe9712b9	-0.29506472
20	0xbd2b7b60	-0.041865706
21	0xbe0e0c35	-0.13871844
22	0x3d36f39b	0.044665914
23	0xbd9d0ce1	-0.07668472
24	0xbe927ff0	-0.28613234
25	0xbdef7469	-0.11692125
26	0xbdf390f2	-0.118928805
27	0xbe83a50c	-0.25711858
28	0xbe694f04	-0.22784048
29	0xbdcbcda4	-0.09951332
30	0x3cb61891	0.022228511
31	0x3df4cabf	0.11952733
32	0x3e0b5e65	0.13610227
33	0xbe503bbc	-0.20335287
34	0xbde3522b	-0.11099657
35	0xbdfea877	-0.12434476
36	0xbd5415ef	-0.05177873
37	0x3eb0acdd	0.34506884
38	0x3e686672	0.2269533
39	0xbe48399a	-0.19553223
40	0x3e85a858	0.26105
41	0xbe0c52ea	-0.13703504
42	0xbd6d5d69	-0.05795041
43	0xbe29ee8a	-0.16594902
44	0x3cd280e2	0.025696222
45	0x3ea87e69	0.32908943
46	0x3ddc2035	0.107483305
47	0xbed7b29f	-0.42128465
48	0x3e09fa8f	0.13474487
49	0xbdb5634e	-0.088568315
50	0x3d43ea7c	0.047831044
51	0xbe402dff	-0.18767546
52	0x3cd03bea	0.025419194
53	0x3ea8b315	0.3294913
54	0x3e8e6f70	0.27819395
55	0xbe704d01	-0.23466875
56	0x3e9e2467	0.30887148
57	0xbe4e74c5	-0.20161732
58	0xbdbca2b1	-0.092107184
59	0xbe57fb56	-0.21091971
60	0x3d4749f7	0.048654523
61	0x3ef2461c	0.47319114
62	0x3e53538c	0.2063734
63	0xbe7e6fff	-0.2484741
64	0xbde4eaf1	-0.11177624
65	0xbd86b306	-0.06577115
66	0xbe74fdfc	-0.23925012
67	0xbe169163	-0.14703898
68	0xbc607cf9	-0.013701671
69	0xbdb10b61	-0.086447485
70	0xbe112705	-0.14175041
71	0xbea3fe41	-0.32029918
72	0xbe13874e	-0.14407083
73	0xbdbbd484	-0.091713935
74	0xbe3760bf	-0.17908
75	0xbd875c26	-0.06609373
76	0x3d7259ea	0.05916778
77	0x3d0700e5	0.032959837
78	0xbd78ab7c	-0.060710415
79	0xbea07242	-0.31337172
80	0xbda0883a	-0.07838483
81	0xbd43f9c3	-0.047845613
82	0xbe5349d9	-0.2063364
83	0xbceb38c8	-0.028713599
84	0x3da10434	0.0786213
85	0xbd09e526	-0.0336658
86	0xbd6cacc1	-0.05778194
87	0xbe9e9b67	-0.30977938
88	0xbe078136	-0.13232884
89	0xbd662866	-0.05619087
90	0xbe64fd33	-0.22362213
91	0xbd7df31b	-0.06199942
92	0x3d8d8867	0.06910782
93	0xbccd5c41	-0.025068404
94	0xbe066b9e	-0.1312699
95	0xbeaea51f	-0.34110352
96	0x3d10fd79	0.03539798
97	0x3c0b75b3	0.008511948
98	0x3d2ace5b	0.041700702
99	0xbcfe20c6	-0.031021487
100	0xbeb50018	-0.35351634
101	0xbe8fe373	-0.28103217
102	0xbcbc9530	-0.023020357
103	0xbd85ff08	-0.06542784
104	0xbe61c5ca	-0.22048107
105	0xbbcbb8a9	-0.0062170816
106	0x3e72d5bd	0.23714347
107	0x3e22c82d	0.15896674
108	0xbe2d2d56	-0.16911826
109	0xbde25f25	-0.11053304
110	0xbe26340f	-0.16230796
111	0x3d6df7da	0.058097698
112	0x3cfbfd83	0.030760532
113	0x3c0452f4	0.008076418
114	0xbabddbd8	-0.0014485074
115	0xbe11af64	-0.14227062
116	0xbecfb75e	-0.40569586
117	0xbe8aefb6	-0.2713601
118	0xbdc030e2	-0.09384324
119	0xbd93e74e	-0.07221852
120	0xbe6324de	-0.22182032
121	0xbe6133c5	-0.21992405
122	0x3e7f40de	0.24927089
123	0x3df1981c	0.11796591
124	0xbe6a8375	-0.2290171
125	0xbe3cafae	-0.18426391
126	0xbe221f56	-0.15832266
127	0x3d6adfd0	0.05734235
128	0x3dfef2b6	0.12448637
129	0xbf1b0029	-0.6054712
130	0x3f5401ec	0.8281543
131	0x3f7302d4	0.9492619
132	0x3f1aa8a6	0.6041359
133	0x3f27dcf5	0.6557153
134	0xbf1a5105	-0.60279876
135	0xbe37911a	-0.17926446
136	0x3e82301c	0.2542733
137	0xbe6ab727	-0.2292143
138	0x3e4d6421	0.20057727
139	0xbe6a5cf6	-0.22887024
140	0xbe4c1a6b	-0.19931953
141	0x3df21208	0.118198454
142	0xbee78f27	-0.45226404
143	0x3ebbbd1d	0.3666772
144	0x3e97f1fb	0.29676804
145	0x3eae3a33	0.34028777
146	0xbeef866d	-0.46782246
147	0xbf072d23	-0.5280325
148	0xbe9129cd	-0.28352204
149	0x3de3150b	0.11087998
150	0xbe0239dc	-0.12717384
151	0x3e3c705e	0.1840224
152	0xbe140753	-0.14455919
153	0x3f0c6b80	0.5485153
154	0xbf22d2eb	-0.63603085
155	0xbf2f83d7	-0.68560547
156	0xbf180ed0	-0.593976
157	0xbf16b8b6	-0.58875597
158	0x3ec9ff34	0.39452517
159	0x3dd1505a	0.10220404
160	0xbd2b69d4	-0.041848972
161	0xbd1d80a9	-0.038452778
162	0x3e558b72	0.20853975
163	0x3ccaec4c	0.024770878
164	0xbe5be679	-0.21474637
165	0xbcd681d7	-0.02618496
166	0x3d10f2b7	0.03538772
167	0xbd51ba23	-0.051202904
168	0xbbe133c1	-0.0068726246
169	0xbc9a0f2c	-0.018806063
170	0x3e413c97	0.1887077
171	0x3d17c33c	0.037051424
172	0xbe592878	-0.21206844
173	0xbddedaf9	-0.108816095
174	0x3c079b9a	0.008276844
175	0xbdd8eb09	-0.105917044
176	0x3d7ce0ee	0.061737947
177	0xbdbabfce	-0.09118615
178	0x3e3e5bf3	0.18589763
179	0x3e0cef04	0.13763052
180	0xbde640a8	-0.11242801
181	0xbe052c39	-0.13005151
182	0xbc2fbbd4	-0.010725934
183	0xbe71f2eb	-0.23627822
184	0xbc2170c7	-0.009853548
185	0xbd311163	-0.043229472
186	0x3db08d1a	0.08620663
187	0x3d2d3030	0.042282283
188	0xbdea82c7	-0.11450725
189	0xbe05bff2	-0.13061503
190	0x3cd97f02	0.02654982
191	0xbd8f0eaf	-0.069852225
192	0x3a53443b	0.00080591784
193	0xbd1984ee	-0.037480287
194	0xbe7f7805	-0.24948128
195	0x3d3f8447	0.04675701
196	0x3d22c8cb	0.039742272
197	0x3cb2b853	0.021816408
198	0x3d149f85	0.036284942
199	0xbcca18e9	-0.024670081
200	0x3d0e2952	0.034707375
201	0xbdd60d47	-0.10451751
202	0xbe833c35	-0.25631872
203	0x3c0f4832	0.00874524
204	0x3ca9b14d	0.020714426
205	0x3c046810	0.008081451
206	0x3d471524	0.048604146
207	0xbc8e5a28	-0.017376974
208	0xbc0f427b	-0.0087438775
209	0xbc05fd8f	-0.008178129
210	0xbe8ca9eb	-0.27473387
211	0x3cd856b9	0.02640854
212	0x3b8bd37d	0.0042671547
213	0x3d7fb294	0.062426165
214	0xbd506a01	-0.050882343
215	0x3d17abe0	0.037029147
216	0x3d113972	0.035455175
217	0xbd8a0cfe	-0.06740759
218	0xbe8190c5	-0.25305763
219	0x3d6cc7fe	0.057807915
220	0x3b97193b	0.004611162
221	0x3d8be243	0.068302654
222	0x3b1be39f	0.0023786796
223	0x3d338ebd	0.043837298
224	0x3d81b7e0	0.063338995
225	0x3e4d0e85	0.2002507
226	0xbd9ad724	-0.07560566
227	0x3b82b655	0.003989021
228	0x3d44e964	0.04807414
229	0x3cf13c5a	0.029447723
230	0x3d169c97	0.03677043
231	0x3decfe95	0.11571995
232	0xbdc0a85b	-0.09407111
233	0x3e9a048c	0.30081594
234	0xbc77a624	-0.015115295
235	0x3dc6e3a5	0.097113885
236	0xbc1fe6af	-0.009759589
237	0x3dc2804a	0.094971254
238	0x3b5adb47	0.003339486
239	0x3d8167ea	0.06318648
240	0x3b9e5b3c	0.0048326533
241	0x3e949ced	0.29025975
242	0x3d28507c	0.04109238
243	0x3d3c739c	0.04600869
244	0xbccee37a	-0.025254954
245	0xbc3ee2d2	-0.011650758
246	0x3dd71cf7	0.105035715
247	0x3e81c5d4	0.25346243
248	0x3d915a41	0.07097293
249	0x3e7d0ced	0.24711962
250	0xbdaf4112	-0.08557333
251	0x3c800241	0.015626075
252	0xbda93366	-0.082617566
253	0xbd1d1d2b	-0.038357895
254	0x3da80899	0.08204765
255	0x3e0f595e	0.13998935

conv2d_1/Bias f4 [32]
0	0xbe87e467	-0.26541445
1	0x3f96eeb2	1.1791594
2	0x3ef42a91	0.47688726
3	0x3dae5dc9	0.08513982
4	0x3e6fe983	0.23428921
5	0xbe2df74c	-0.16988868
6	0xbda15a57	-0.07878559
7	0xbf4cd0ce	-0.8000611
8	0xbcd10b0e	-0.025517967
9	0x3e92fd4c	0.28708875
10	0xbeb090ab	-0.34485373
11	0xbeb9bd60	-0.36277294
12	0xbe1eb8f3	-0.1550024
13	0xbd832974	-0.06404391
14	0x3ebd41d0	0.36964273
15	0x3f034745	0.51280624
16	0xbf7e7574	-0.9939797
17	0xbf780e16	-0.96896493
18	0x3eb0f2de	0.34560293
19	0xbe976774	-0.29571116
20	0x3f14e85e	0.58167064
21	0x3f09504f	0.53638166
22	0x3ea8fb6e	0.33004326
23	0x3e9ce788	0.30645394
24	0x3f67cc7a	0.9054638
25	0x3dddd35d	0.1083133
26	0x3fb3915b	1.4028734
27	0xbf1d0862	-0.61340916
28	0x3ea7a159	0.32740286
29	0xbf758577	-0.95906776
30	0xbf08e72a	-0.5347773
31	0x3febd64b	1.8424772

p_re_lu_1/Alpha f4 [1, 1, 32]
0	0xbf12a2fe	-0.57279956
1	0xbe00a589	-0.12563147
2	0x3fa0efeb	1.2573217
3	0x3ef5822c	0.47950876
4	0x3ec8e1a5	0.39234653
5	0x3e90b0bb	0.28259835
6	0x3e8f9f46	0.28051203
7	0xbe0c7834	-0.13717729
8	0x3e0dafe0	0.13836622
9	0x3e3fdb72	0.18736055
10	0x3f3dc8aa	0.74134314
11	0xbea77919	-0.32709578
12	0xbd89c78b	-0.06727513
13	0x3f18c601	0.5967713
14	0xbf11b9ff	-0.5692443
15	0xbe90eb37	-0.28304455
16	0x3e38250f	0.17982887
17	0x3dd63bcc	0.10460624
18	0x3e394d3b	0.18095867
19	0xbe44fdf5	-0.19237502
20	0x3ea0e098	0.3142135
21	0xbe2f0f53	-0.1709569
22	0xbf62c2cb	-0.8857848
23	0xbe9a7556	-0.30167645
24	0xbd858764	-0.06519964
25	0x3f522348	0.82085085
26	0x3f6170c2	0.8806268
27	0x3f289efb	0.65867585
28	0x3ed09499	0.4073837
29	0x3f583c43	0.8446695
30	0xbeb403b0	-0.35159063
31	0x3f39e343	0.726124

conv2d_2/Kernel f4 [16, 2, 2, 32]
0	0x3c8d59c6	0.017254721
1	0x3bee431a	0.0072711827
2	0x3cc9039f	0.02453786
3	0xbc281843	-0.010259691
4	0xbbdd9ffb	-0.006763456
5	0xbbe34bea	-0.00693654
6	0x3d89d920	0.067308664
7	0x3d14ef7a	0.036361195
8	0xbc3e13d9	-0.011601412
9	0xbb031729	-0.0020002818
10	0xbb35e7f9	-0.0027756675
11	0x3ce9fda9	0.028563337
12	0x3d3dc023	0.046325814
13	0x3d54588c	0.051842257
14	0x3a6d5a20	0.0009054262
15	0x3c491fa2	0.012275608
16	0x3ce2724a	0.027642388
17	0xbde335a0	-0.110942125
18	0x3c7876ee	0.015165074
19	0xbd2457f2	-0.040122934
20	0xbb71b8ea	-0.00368839
21	0xbc1dd267	-0.009632683
22	0x385986f1	5.1862506e-05
23	0xba4e3955	-0.00078668195
24	0x3c06a09e	0.008217005
25	0x3d1f20f9	0.038849805
26	0xbcc23bda	-0.02371018
27	0xbceb3565	-0.028711984
28	0xbda6f9e9	-0.08153135
29	0x3d992ec2	0.074796215
30	0xbafe7386	-0.0019413091
31	0xba7b695d	-0.00095905905
32	0x3d33fd91	0.04394299
33	0xbaa44ebd	-0.0012535673
34	0x3c4b5de2	0.01241252
35	0x3c25a92b	0.010111134
36	0x3c056f93	0.008144277
37	0x3bf934e8	0.007605184
38	0x3d5037bb	0.0508344
39	0x3d0f6f7e	0.035018437
40	0xbc34e248	-0.011040278
41	0xb91eec3e	-0.00015156061
42	0x3c291f2b	0.010322372
43	0xbbb24614	-0.005440483
44	0x3cfc5fd2	0.03080741
45	0x3d781d14	0.060574606
46	0xbc02dcd0	-0.007987216
47	0xbc022073	-0.007942307
48	0x3d3fc077	0.04681441
49	0xbdc9e795	-0.09858624
50	0x3c0a33c8	0.008435197
51	0xbd1cfeb1	-0.03832883
52	0xbbbc5443	-0.0057473495
53	0xbc8f6819	-0.017505692
54	0x3ba69ad9	0.0050843772
55	0x3b1c0f59	0.002381286
56	0x3ad4426d	0.0016194113
57	0x3d2a9c35	0.041652877
58	0xbc98ef42	-0.018668775
59	0xbc9da267	-0.019242479
60	0xbd85090c	-0.06495866
61	0x3d6ad652	0.057333298
62	0xbc4cc2c0	-0.012497604
63	0x3c1f5ff6	0.009727469
64	0xbc284d85	-0.010272388
65	0xbce678b2	-0.028133724
66	0x3cc742d8	0.024323866
67	0x3c760f1e	0.015018253
68	0xbaa59a82	-0.0012634548
69	0xbbdd0767	-0.006745267
70	0x3d7b7e3c	0.061399683
71	0x3d3db307	0.046313312
72	0xbc23291e	-0.009958534
73	0x3ba230b1	0.004949652
74	0x3a2c2940	0.0006567426
75	0x3b82a8e2	0.0039874176
76	0x3cea0085	0.0285647
77	0x3d3cf6ce	0.04613381
78	0x3c46d1a7	0.012134946
79	0xbbdfe697	-0.0068329084
80	0x3d585028	0.052810818
81	0xbdeca9e4	-0.115558416
82	0x3cd11e05	0.02552701
83	0xbd0fb9f8	-0.035089463
84	0x3bb27d7b	0.0054470873
85	0xbc8728a3	-0.01649887
86	0xbc0ba3a3	-0.008522901
87	0x3cb53c67	0.022123529
88	0x3cb0f982	0.02160335
89	0x3d69e076	0.05709883
90	0xbc7f551a	-0.015584255
91	0xbd3d7cc0	-0.04626155
92	0xbd95f4a3	-0.073220514
93	0x3d98dc6b	0.074639164
94	0x3aaa8135	0.0013008477
95	0xbc1dbb92	-0.00962724
96	0x3caa94e4	0.02082295
97	0xbc256857	-0.010095677
98	0x3d0b7b9b	0.034053426
99	0x3c576654	0.0131469555
100	0xbbe95dca	-0.007121776
101	0x3af88c58	0.0018962724
102	0x3d6fdcd0	0.058560193
103	0x3d0640fe	0.032776825
104	0xbc9adf40	-0.018905282
105	0x3c1db69a	0.009626055
106	0x3c84da86	0.016217481
107	0xbc2b82f2	-0.0104682315
108	0x3cc2e386	0.023790132
109	0x3d069406	0.03285601
110	0xbcb173c7	-0.021661652
111	0x3b9c8cc9	0.004777525
112	0x3d4993ef	0.049213346
113	0xbdd7594c	-0.10515079
114	0xbb7df4b5	-0.0038750593
115	0xbd144fa0	-0.03620875
116	0x3b662d9c	0.00351224
117	0xbd08cd8c	-0.03339915
118	0xb96b05a7	-0.00022413452
119	0xbba38a58	-0.004990857
120	0x3c26a022	0.010170015
121	0x3d3d10f4	0.046158746
122	0xbcbbc647	-0.022921694
123	0xbc431694	-0.0119072385
124	0xbda2e3e1	-0.07953621
125	0x3da790ac	0.08181891
126	0xbb74faa0	-0.003738083
127	0xbbe08358	-0.006851595
128	0xbd08dd54	-0.0334142
129	0x3c4e3c22	0.012587579
130	0x3b68d20b	0.0035525586
131	0x3d9dfd0f	0.07714283
132	0x3c8ce105	0.017197141
133	0x3d399366	0.045306586
134	0xbd252980	-0.04032278
135	0xbc40d81a	-0.011770273
136	0x39a95034	0.00032293948
137	0x3b55b9c8	0.0032611955
138	0x3ded5b67	0.11589699
139	0x3a7bec3c	0.0009610092
140	0xbd0607ac	-0.03272216
141	0xbbbaefad	-0.005704841
142	0x3bbaff24	0.0057066847
143	0x3c40d6e2	0.011769982
144	0x3cd0fde2	0.025511686
145	0x3d1334e2	0.035939105
146	0x3ce7abc1	0.02828014
147	0x3cb32e65	0.021872709
148	0x3bd067b5	0.006360019
149	0xbbc050b8	-0.0058689974
150	0xba8aaf38	-0.0010580784
151	0xbc0ed8d9	-0.008718693
152	0xbc746a36	-0.014917901
153	0xbb92f489	-0.0044847173
154	0xbd857ad4	-0.06517568
155	0x3d1ac258	0.037782997
156	0xbcb1b11e	-0.021690901
157	0xbc1ff848	-0.009763785
158	0x3ba0d3dc	0.004908068
159	0xba9c003d	-0.0011901926
160	0xbd358b88	-0.04432252
161	0x3c3e02fc	0.011597391
162	0x3d55a3d7	0.052158203
163	0x3d820e83	0.06350424
164	0x3a14bf4e	0.00056742586
165	0x3c1a7c27	0.009429014
166	0xbccd3beb	-0.025052985
167	0xbcf807d8	-0.030277178
168	0x3b9ff102	0.0048810253
169	0xbb987eb8	-0.004653778
170	0x3da298b0	0.07939279
171	0xbc1d402b	-0.009597818
172	0xbd01a700	-0.031653404
173	0xbcff67a5	-0.031177351
174	0x3c809de4	0.015700288
175	0x3b3abeef	0.0028495153
176	0xbca7e3b2	-0.020494316
177	0x3cc9f5dd	0.02465337
178	0x3cf007c6	0.029300582
179	0xbbe1edac	-0.006894788
180	0x3ad39a70	0.0016144048
181	0xbb5fb7b2	-0.003413659
182	0xbb6acbb7	-0.003582699
183	0xbc88f9a7	-0.016720606
184	0xbc2f777b	-0.010709639
185	0xbc3fb558	-0.011700951
186	0xbd488fb1	-0.04896516
187	0x3ca26cd9	0.019827293
188	0xbd4591ea	-0.048234858
189	0xbc201d78	-0.009772651
190	0xbc125da8	-0.008933462
191	0xbbc7d202	-0.006098033
192	0xbd03fdbf	-0.032224413
193	0xbc947795	-0.018123427
194	0x3ca2dc0a	0.019880313
195	0x3dc572c1	0.09641028
196	0x3c59d4b5	0.013295342
197	0x3da0fbd3	0.07860532
198	0xbd22d911	-0.039757792
199	0xbcb36fc8	-0.021903887
200	0x3b1c538e	0.0023853513
201	0x3ce5a0d4	0.02803079
202	0x3ded3af0	0.11583507
203	0x3c86140d	0.016366983
204	0xbce4da54	-0.027936138
205	0xbc19603d	-0.009361324
206	0xb917f5d9	-0.00014492068
207	0x3c0fd792	0.008779423
208	0x3b0cefbd	0.00215052
209	0x3d975365	0.07388953
210	0x3d4a553e	0.0493977
211	0x3d1d94bd	0.038471926
212	0x3b49d3bb	0.0030796367
213	0xbab94570	-0.0014135074
214	0xbb67ee61	-0.0035389888
215	0x3b38538b	0.0028125967
216	0xbab78b20	-0.0014003254
217	0xbbfae07c	-0.007656155
218	0xbd724271	-0.059145395
219	0x3d1fa3c9	0.038974557
220	0xbd0ad24b	-0.033891957
221	0xbc22296c	-0.009897571
222	0x3c6f629e	0.0146109145
223	0x3aadacd4	0.0013250359
224	0xbd2ae67d	-0.041723717
225	0x3cbed99b	0.023297122
226	0x3d022c6e	0.031780653
227	0x3d7fde7d	0.06246804
228	0x3c96c633	0.018405056
229	0x3d095590	0.033528864
230	0xbccf8b90	-0.025335103
231	0xbd0de230	-0.034639537
232	0x3bb4a4dd	0.0055128173
233	0x3c110c9a	0.008853102
234	0x3e01284b	0.12613027
235	0xbc0166ae	-0.007898016
236	0xbd3348d7	-0.043770637
237	0x3a3b6b0f	0.0007149437
238	0x3c0dca4c	0.008654188
239	0x3b7c40f7	0.003849087
240	0x3ccfe41a	0.025377322
241	0x3cf434d7	0.029810352
242	0x3d163003	0.03666688
243	0x3bb11a18	0.005404722
244	0xbb7c7395	-0.003852104
245	0xbc057891	-0.008146421
246	0x3a99a696	0.001172262
247	0xbc8e71c9	-0.017388241
248	0xbc085c3a	-0.00832277
249	0xbbfcabe6	-0.0077109216
250	0xbdc82ae4	-0.09773806
251	0x3d24f90b	0.04027657
252	0xbd7d48b7	-0.061836924
253	0x3c9f456f	0.019442288
254	0xbbd3d75e	-0.0064648828
255	0xbb237386	-0.0024940684

conv2d_2/Bias f4 [16]
0	0xbf03ace7	-0.51435703
1	0xbf554bea	-0.8331896
2	0x3da63dd1	0.08117259
3	0x3f76eaee	0.96452224
4	0xbec34868	-0.3814118
5	0x3d61b07f	0.05509996
6	0x3f574602	0.840912
7	0x3f06acca	0.52607405
8	0x3ec5544d	0.3854088
9	0x3f8a3476	1.079726
10	0x3f81ebfe	1.0150144
11	0x4014c1d9	2.3243315
12	0x3eab1923	0.33417615
13	0xbf81adcf	-1.0131167
14	0xbe8bf530	-0.273355
15	0xbf442d87	-0.7663197

p_re_lu_2/Alpha f4 [1, 1, 16]
0	0x3f71be0b	0.9443061
1	0x3f937364	1.151959
2	0x3f29151a	0.66047823
3	0x3f0f0d9e	0.55880153
4	0x3f92550a	1.1432202
5	0x3f83f876	1.0310199
6	0x3e948d2a	0.2901395
7	0x3efeb770	0.49749327
8	0x3eaef02c	0.34167612
9	0x3f8ace59	1.0844222
10	0x3f51defd	0.8198088
11	0x3d818ed3	0.0632607
12	0x3f7135e6	0.9422287
13	0x3ed52efa	0.41637403
14	0x3f786947	0.9703564
15	0x3e5a55d2	0.213218

depthwise_conv2d/Kernel f4 [1, 3, 3, 16]
0	0xbea357e9	-0.31903008
1	0xbd84b272	-0.06479348
2	0x3a624bcd	0.0008632511
3	0xbd5f7036	-0.054550372
4	0xbf0c15f8	-0.5472102
5	0xbe00fa1f	-0.12595414
6	0xbf07a69b	-0.52988595
7	0xbe5ee868	-0.21768343
8	0x3e810c2f	0.25204608
9	0xbd01a930	-0.03165549
10	0x3eccc8e8	0.3999703
11	0x3c120bbb	0.00891393
12	0x3c2eb5ab	0.01066343
13	0x3d014c33	0.03156681
14	0x3d0ebfe3	0.034850966
15	0xbdaf11e5	-0.08548335
16	0xbec8eb9a	-0.3924225
17	0x3e0de791	0.13857867
18	0x3e7a9f2f	0.24474786
19	0xbd9a367f	-0.075299256
20	0xbf0fe3eb	-0.5620715
21	0xbf13e229	-0.5776697
22	0xbe8f63f2	-0.2800594
23	0xbd8a5144	-0.067537814
24	0x3e166f74	0.14690953
25	0xbf32a05d	-0.69775945
26	0x3e9efb1a	0.3105095
27	0x3e1c02be	0.15235421
28	0x3ed22a29	0.4104779
29	0x3d8a4446	0.067513034
30	0x3ed341a7	0.41261026
31	0x3ea776d6	0.32707852
32	0x3e00a99c	0.12564701
33	0x3f045ab1	0.51700884
34	0xbe9e5b0b	-0.30928835
35	0xbcd6a34b	-0.026200911
36	0xbebaab7f	-0.36458966
37	0xbe15a251	-0.146127
38	0xbc655a56	-0.013998589
39	0xba8ee46c	-0.0010901815
40	0xbe1d2e2c	-0.15349644
41	0xbe7e98a6	-0.24862918
42	0xbe8a559d	-0.27018443
43	0xb9f65ca7	-0.00046989808
44	0x3eab167c	0.33415592
45	0xbd9ead98	-0.07747954
46	0x3c7dfff3	0.015502918
47	0x3e10a1eb	0.14124267
48	0xbf2951fd	-0.6614073
49	0xbf12e8d1	-0.573865
50	0x3ed0589b	0.406926
51	0x3d899396	0.06717603
52	0x3b1384a0	0.002250947
53	0x3d2d0f59	0.042250965
54	0xbecfdb9f	-0.40597245
55	0xbe51c1da	-0.20484105
56	0x3e88c5c1	0.26713374
57	0xbd81b09c	-0.06332514
58	0x3e438ca8	0.19096625
59	0x3e2b94ec	0.16756028
60	0x3d881355	0.06644312
61	0x3f0669b0	0.52505016
62	0x3d795bce	0.060878567
63	0x3cb8418e	0.022492196
64	0x3e4a8291	0.1977637
65	0xbe28003f	-0.16406344
66	0xbdae6f4b	-0.08517321
67	0xbf0ee6d3	-0.5582096
68	0x3e156757	0.14590202
69	0x3ef656bf	0.48113057
70	0x3de3067f	0.110852234
71	0xbd827ac9	-0.06371076
72	0xbe81cdb3	-0.2535225
73	0x3f65972b	0.8968379
74	0x3ebb62c1	0.3659878
75	0xbf6e4e02	-0.9308778
76	0x3dcc3103	0.09970286
77	0xbd0e7b22	-0.034785397
78	0x3dc81dde	0.09771322
79	0x3e7fec66	0.24992523
80	0x3f4d4076	0.80176485
81	0x3f267ba9	0.6503244
82	0xbe99a39c	-0.30007637
83	0xbd1c2073	-0.038116883
84	0x3d6d0555	0.057866413
85	0xbf11cb76	-0.5695108
86	0x3f30e9d5	0.691068
87	0x3e6b80a8	0.22998297
88	0xbebb1a02	-0.3654328
89	0xbd8a6af9	-0.06758685
90	0xbdc8b532	-0.09800185
91	0xbe39f653	-0.18160371
92	0xbf6c6897	-0.9234709
93	0xbf3bcc9a	-0.7335907
94	0xbf7b3f45	-0.98143417
95	0x3d02d402	0.031940468
96	0xbe0d573b	-0.13802807
97	0xbf06a243	-0.5259134
98	0xbe1acef7	-0.15118013
99	0xbe069a26	-0.1314474
100	0x3d703b6b	0.058650415
101	0x3e1ca031	0.15295483
102	0xbe89c0ee	-0.26905006
103	0xbe8910fd	-0.26770774
104	0x3eb20f50	0.34777308
105	0xbd59b378	-0.05314967
106	0xbe592f28	-0.21209395
107	0xbe4f504a	-0.20245472
108	0xbddf73be	-0.10910748
109	0x3e29c5e0	0.1657939
110	0xbdfee959	-0.12446851
111	0xbead60ce	-0.3386292
112	0x3d0abaa6	0.033869408
113	0xbe817955	-0.25287881
114	0x3ec8e1a9	0.39234665
115	0x3f457e49	0.7714582
116	0x3f16c41b	0.58892983
117	0x3f575814	0.8411877
118	0x3e9a7391	0.30166295
119	0x3f23ff50	0.6406145
120	0xbe677b4b	-0.22605626
121	0x3ec14632	0.37748867
122	0xbd8e4d2b	-0.06948312
123	0x3e6c3938	0.23068702
124	0x3e1d5826	0.15365657
125	0x3eb6fa3d	0.35737792
126	0x3ee332f7	0.4437482
127	0x3da668a7	0.081254296
128	0x3eb7791a	0.3583458
129	0x3e8dc772	0.27691227
130	0xbe58ec1b	-0.21183817
131	0xbb852289	-0.004062955
132	0x3f1088b5	0.564586
133	0xbdb76365	-0.08954505
134	0x3ecde123	0.40210828
135	0xbe175127	-0.14777051
136	0xbe52017c	-0.20508379
137	0xbdf35d4a	-0.11883028
138	0xbf155cfc	-0.5834501
139	0xbbeeab0f	-0.0072835754
140	0x3d1a7fdf	0.037719604
141	0xbe81a6b9	-0.25322512
142	0x3d1bf3fd	0.038074482
143	0x3e52d3bd	0.20588584

depthwise_conv2d/Bias f4 [16]
0	0x00000000	0.0
1	0x00000000	0.0
2	0x00000000	0.0
3	0x00000000	0.0
4	0x00000000	0.0
5	0x00000000	0.0
6	0x00000000	0.0
7	0x00000000	0.0
8	0x00000000	0.0
9	0x00000000	0.0
10	0x00000000	0.0
11	0x00000000	0.0
12	0x00000000	0.0
13	0x00000000	0.0
14	0x00000000	0.0
15	0x00000000	0.0

conv2d_3/Kernel f4 [16, 1, 1, 16]
0	0x3e9f7887	0.31146643
1	0xbead83f6	-0.3388974
2	0x3dcfc1f3	0.10144415
3	0x3e0c1b49	0.13682283
4	0x3eb2b01e	0.34899992
5	0x3e7f06b0	0.24904895
6	0xbf0f6f72	-0.5602943
7	0xbe71e6db	-0.2362322
8	0x3e95301c	0.29138267
9	0x3dd2617c	0.102725
10	0x3dedfc09	0.116203375
11	0x3f0e7a56	0.5565542
12	0x3cc7b0ba	0.024376262
13	0xbe509d77	-0.20372568
14	0xbdd667ef	-0.104690425
15	0x3e6e305c	0.23260635
16	0x3e2d641e	0.16932723
17	0x3f39ed12	0.72627366
18	0x3efbbe4e	0.49168628
19	0x3c876eea	0.01653238
20	0xbf8bcbb0	-1.0921535
21	0x3dce2318	0.10065287
22	0x3ff64374	1.9239335
23	0xbedbd60f	-0.4293675
24	0x3f603fe1	0.8759747
25	0xbe9839a9	-0.2973149
26	0x3f9f65d7	1.2452954
27	0xbdd1a70a	-0.10236938
28	0xbe6fb0be	-0.23407266
29	0xbedbb484	-0.4291116
30	0xbe48e5bd	-0.19618888
31	0xbdb9f1b1	-0.09079302
32	0xbfd84012	-1.6894553
33	0xbd3ac5ee	-0.045598917
34	0x3e108848	0.14114487
35	0x3e409dfc	0.18810266
36	0xbd88b5a4	-0.0667527
37	0x3ef86358	0.48513293
38	0xbde44c04	-0.11147311
39	0xbca53db5	-0.020171026
40	0x3d96e077	0.07367032
41	0xbce0b65a	-0.027430702
42	0xbc0eddac	-0.008719843
43	0xbe84a53a	-0.25907308
44	0xbc54c619	-0.012986683
45	0xbf82938f	-1.0201281
46	0x3d66531e	0.05623161
47	0xbcd11c2c	-0.025526129
48	0x3d6c070a	0.0576239
49	0x3db6a00e	0.08917247
50	0xbd093391	-0.033496443
51	0x3d66da1d	0.056360353
52	0xbe6f8f3c	-0.23394483
53	0x3df58fe5	0.11990336
54	0xbcda14bb	-0.026621213
55	0x3edd7a94	0.43257582
56	0xbdf5b781	-0.11997891
57	0xbf37a0eb	-0.71729916
58	0xbe4b352b	-0.198445
59	0xbdb8905e	-0.09011911
60	0x3da3e3c0	0.08002424
61	0x3db64f66	0.08901863
62	0xbe2d71da	-0.16937962
63	0x3e67a080	0.2261982
64	0x3e459016	0.19293246
65	0xbd3b17d8	-0.045677036
66	0x3e3ccce0	0.18437529
67	0xbe05106b	-0.12994544
68	0xbdb382f8	-0.08765215
69	0xbeb0fef7	-0.34569523
70	0xbc837d49	-0.016050952
71	0x3da55c53	0.0807425
72	0xbdb2bcaf	-0.08727395
73	0xbdb7b1bb	-0.08969446
74	0xbdcb79f6	-0.099353716
75	0x3d96b064	0.073578626
76	0x3f35d93b	0.7103459
77	0x3e5ebf17	0.21752582
78	0xbf60468f	-0.87607664
79	0x3cf50bc3	0.029912835
80	0x3e8bcb0e	0.27303356
81	0x3ef9146a	0.48648387
82	0xbebf87ab	-0.37408194
83	0x3ebd0131	0.3691497
84	0xbedd399d	-0.43208018
85	0xbf0284c2	-0.5098382
86	0xbed7c39b	-0.42141423
87	0x3e73170a	0.23739257
88	0xbeb55c8d	-0.35422173
89	0xbe1a7fdf	-0.15087841
90	0x3e40d129	0.18829788
91	0x3e0e541d	0.13899274
92	0x3e9e4963	0.30915365
93	0xbde7b833	-0.1131443
94	0x3e7aa715	0.24477799
95	0x3f0f64fe	0.56013477
96	0xbe88f638	-0.2675035
97	0x3c0e6624	0.008691344
98	0x3df1a27d	0.1179857
99	0xbd6cec41	-0.057842497
100	0x3d829e91	0.063779004
101	0xbea77ea5	-0.3271381
102	0xbe037ce6	-0.12840614
103	0xbe77e206	-0.24207315
104	0x3e0557c4	0.13021761
105	0x3f4f3817	0.8094496
106	0x3ddd3d8a	0.10802753
107	0xbdf44afe	-0.11928366
108	0xbc516a2f	-0.012781664
109	0xbe0f3e28	-0.13988554
110	0xbd3359ff	-0.043787
111	0xbe4e33f8	-0.20137012
112	0xbefd97c9	-0.49529865
113	0x3e6881c9	0.22705759
114	0xba4473df	-0.0007494073
115	0xbec4ea5d	-0.38460055
116	0xbf97007d	-1.1797024
117	0xc00a6944	-2.162675
118	0xbda5daef	-0.08098399
119	0x3f30c14f	0.69044966
120	0xbe50ebf8	-0.20402515
121	0x3f698ae4	0.91227555
122	0xbedcdfec	-0.4313959
123	0xbebdb491	-0.37051824
124	0xbeffb610	-0.4994359
125	0x3efd1c0f	0.4943547
126	0x3e85e6d0	0.26152658
127	0x3e8abadf	0.27095696
128	0x3f17ffd1	0.5937472
129	0xbdd4e994	-0.10396114
130	0x3e413c81	0.18870737
131	0x3efda7f7	0.4954221
132	0x3cc32d11	0.0238252
133	0xbcb8b1e6	-0.022545766
134	0x3f2e144b	0.67999715
135	0x3eef1ebe	0.46703142
136	0xbf3c7146	-0.7361034
137	0xbf5c4791	-0.860467
138	0x3efbfcbb	0.49216256
139	0xbd978f6e	-0.07400404
140	0xbdde91c4	-0.10867646
141	0x3d095a34	0.03353329
142	0xbd8110eb	-0.06302055
143	0xbd3a2e69	-0.045454416
144	0x3f15a670	0.5845709
145	0x3e907829	0.28216675
146	0x3f25c487	0.64753
147	0xbe99a0f1	-0.300056
148	0x3d8dbd40	0.06920862
149	0xbf14a5cf	-0.58065504
150	0x3f6514b7	0.89484733
151	0xbe206594	-0.15663749
152	0xbd35bef0	-0.044371545
153	0xbe86d788	-0.26336312
154	0xbf33696d	-0.7008274
155	0x3fcb6108	1.5888987
156	0x3e3cff5c	0.18456787
157	0x3f62eb64	0.8864043
158	0xbead12c3	-0.33803377
159	0xbc751c71	-0.014960394
160	0x3df871c5	0.12131075
161	0xbd3c096d	-0.045907427
162	0xbe8812d4	-0.26576865
163	0x3de6d728	0.112715065
164	0xbf6e08bb	-0.9298207
165	0xbd8e1eae	-0.069394454
166	0x3f1840c7	0.5947384
167	0x3e53a852	0.20669678
168	0x3e12d8cf	0.14340518
169	0xbe749f0e	-0.238888
170	0xbcc72c3f	-0.02431309
171	0xbe17b3d5	-0.14814694
172	0xbeae832f	-0.3408446
173	0xbe04eafc	-0.12980264
174	0xbe197c69	-0.14988865
175	0x3e41e5d8	0.18935335
176	0x3dd50830	0.10401952
177	0xbcf672e0	-0.030084074
178	0x3dc53c74	0.09630671
179	0xbf524ef6	-0.82151735
180	0xbdfde57b	-0.123972856
181	0xbcd1202e	-0.02552804
182	0xbcc7df2d	-0.02439841
183	0xbe14bab4	-0.14524347
184	0xbd838151	-0.064211495
185	0xbd23d094	-0.039993837
186	0xbd3265dd	-0.043554176
187	0xbf03838f	-0.5137262
188	0x3e07d941	0.1326647
189	0x3c1665c0	0.0091795325
190	0x3e267e4f	0.1625912
191	0x3ccaaca6	0.024740528
192	0x3dbc9eec	0.092099994
193	0x401c6d4f	2.4441717
194	0xbd815917	-0.06315821
195	0x3d07be1e	0.033140294
196	0xbe5f3aa8	-0.2179972
197	0x3b514133	0.003192973
198	0xbf87329a	-1.0562317
199	0xbe413da5	-0.18871172
200	0x3e836dd3	0.25669727
201	0xbe308696	-0.1723884
202	0x3eb52dfc	0.35386646
203	0xbd873fee	-0.066039905
204	0xbc8f146f	-0.017465798
205	0xbf4678fe	-0.7752837
206	0x3de5356f	0.11191832
207	0x3dac2a0b	0.084064566
208	0x3e6b8450	0.22999692
209	0x3d520714	0.05127628
210	0x3e893373	0.26797065
211	0xbd44e385	-0.048068542
212	0x3e36b278	0.17841518
213	0xbb074b83	-0.0020644374
214	0x3eaae750	0.33379602
215	0xbe179761	-0.1480384
216	0x3e194363	0.14967112
217	0x3ec5f879	0.38666132
218	0x3f0bb261	0.5456906
219	0x3dc64cc1	0.096826084
220	0xbe3bc0a3	-0.18335204
221	0xbdedd238	-0.11612362
222	0x3d115fbb	0.035491686
223	0x3dedc61f	0.11610054
224	0x3daa9a23	0.083301805
225	0xbea721cd	-0.32642975
226	0xbe7dd8f0	-0.24789786
227	0x3e54eb1e	0.20792815
228	0xbd831e52	-0.064022675
229	0xbef2d65d	-0.4742917
230	0xbe2c1f9d	-0.16808935
231	0xbe449b9d	-0.19199987
232	0xbdea89d1	-0.11452068
233	0xbdec46cc	-0.11536941
234	0x3e99cffa	0.30041486
235	0xbd519bf3	-0.051174115
236	0xbde628b6	-0.11238234
237	0x3e32d990	0.17465806
238	0x3d9e1ca1	0.07720304
239	0xbdd8e211	-0.10589994
240	0xbe4a17a4	-0.1973558
241	0xbecf6150	-0.4050393
242	0xbf5ffad4	-0.8749211
243	0x3e0b2f7d	0.13592334
244	0x3f8636f8	1.0485525
245	0xbed4d8be	-0.4157161
246	0xbf24cc9c	-0.6437471
247	0xbe685d96	-0.2269195
248	0xbf861c7f	-1.0477446
249	0x3e1c5bcc	0.15269393
250	0xbfa12484	-1.2589269
251	0xbf054314	-0.5205548
252	0x3e65c868	0.2243973
253	0xbd9246e3	-0.07142427
254	0xbf28ed56	-0.65987146
255	0x3fab1838	1.3366766

conv2d_3/Bias f4 [16]
0	0x3f23d19e	0.63991725
1	0x3bb901d5	0.0056459703
2	0xbd9adefe	-0.07562064
3	0x3eaa87f3	0.33306846
4	0x3ead3aeb	0.33834013
5	0x3ed37bee	0.41305488
6	0x3efdf6a2	0.49602228
7	0xbde7d6a4	-0.11320236
8	0x3edc402d	0.43017712
9	0x3e1ad75f	0.1512122
10	0x3ee8cd56	0.4546916
11	0x3edc19d1	0.42988446
12	0xbb6ea698	-0.0036415216
13	0x3f1a6f9e	0.60326564
14	0x3f385580	0.7200546
15	0xbed8a1b3	-0.42310867

p_re_lu_3/Alpha f4 [1, 1, 16]
0	0x3f12ee6e	0.57395065
1	0xbf489d55	-0.7836507
2	0x3f3f92c6	0.74833333
3	0x3e92d2a6	0.28676337
4	0x3f3cf28e	0.7380761
5	0x3f3b3cd2	0.7313968
6	0x3f368d88	0.7130971
7	0xbf87a8ac	-1.059835
8	0x3ee67489	0.45010784
9	0x3eb4744a	0.35244972
10	0x3f30a7f5	0.6900628
11	0x3d2c18fd	0.04201602
12	0xbf6aba5f	-0.9169063
13	0x3ec113c4	0.37710392
14	0x3ef39442	0.4757405
15	0xbf2a4b96	-0.66521585

depthwise_conv2d_1/Kernel f4 [1, 3, 3, 16]
0	0xbd31a07a	-0.043365933
1	0xbdbea15d	-0.09308121
2	0x3d88b7ac	0.06675658
3	0x3d9bc6bf	0.07606267
4	0xbc682f44	-0.014171425
5	0xbe864d37	-0.26230785
6	0x3cb63347	0.022241248
7	0x3d6caa25	0.05777945
8	0x3eb9f9c8	0.3632338
9	0x3c07c714	0.00828721
10	0xbe9043ea	-0.28176814
11	0xbe96e3fe	-0.2947082
12	0x3d15a280	0.036531925
13	0x3f1a00fc	0.6015775
14	0x3e7e06d9	0.248073
15	0x3e911863	0.28338918
16	0xbf8131bf	-1.0093306
17	0x3d040074	0.032226995
18	0xbe8c89a6	-0.27448767
19	0xbd0603b7	-0.032718387
20	0xbf5fdba2	-0.8744451
21	0x3edb1912	0.42792565
22	0xbf49edd6	-0.78878534
23	0x3bfe1dab	0.0077550015
24	0x3e2b7867	0.16745149
25	0x3d86554d	0.065592386
26	0xbec94b15	-0.39315096
27	0xbfcc54b8	-1.5963354
28	0xbd89a3c6	-0.067206904
29	0x3ed4e40d	0.4158024
30	0xbdaed68f	-0.085370176
31	0xbcba0258	-0.022706196
32	0xbdcdfe9e	-0.1005833
33	0xbd466436	-0.048435412
34	0x3c40381b	0.011732127
35	0x3d5c4c70	0.053783834
36	0x3d044ffb	0.032302838
37	0x3e5ced81	0.21574976
38	0x3df6d386	0.12052064
39	0xbcbb0cd7	-0.022833271
40	0x3d0f4de1	0.03498638
41	0xbd37a3cb	-0.04483394
42	0x3dd3e493	0.103463314
43	0x3e40bcee	0.18822071
44	0x3d994e27	0.074856095
45	0xbdd9278f	-0.10603248
46	0x3fc72710	1.5558796
47	0x3df1f266	0.11813812
48	0xbe7f8ab9	-0.24955262
49	0x3d964a76	0.07338421
50	0xbde916bc	-0.11381289
51	0x3e0ab6b6	0.13546261
52	0x4015d675	2.3412144
53	0xbf258c20	-0.6466694
54	0x3eb6be08	0.35691857
55	0x3de15680	0.11002827
56	0x3e489edb	0.19591849
57	0xbda663f3	-0.081245326
58	0xbe7fdd3f	-0.24986742
59	0x3ebf1fb9	0.3732889
60	0xbd06c64d	-0.032903958
61	0x3f349a61	0.70548064
62	0x3ce9cae5	0.02853913
63	0x3cc36b10	0.023854762
64	0xbef99b1a	-0.48751146
65	0x3f07435a	0.52837145
66	0xbf005277	-0.5012583
67	0xbe117174	-0.14203435
68	0xbeacbe94	-0.3373915
69	0xbd5d1be5	-0.05398168
70	0xc022c221	-2.5430987
71	0x3e1e33c0	0.15449429
72	0x3e0bbb83	0.13645749
73	0xbee4901e	-0.44641203
74	0xbe52d711	-0.20589854
75	0x3fee94be	1.8639143
76	0xbf154828	-0.58313227
77	0xbf31bb0b	-0.6942603
78	0xbffd44bd	-1.9786602
79	0xbe64bdfd	-0.223381
80	0x3f052364	0.52007127
81	0x3d98f1b0	0.07467973
82	0xbdb15196	-0.086581394
83	0x3d794fdf	0.060867187
84	0xbed08969	-0.40729836
85	0x3ee9b797	0.4564788
86	0x3f64d6ee	0.89390457
87	0x3e03016c	0.12793511
88	0xbe083dd5	-0.13304837
89	0xbee139eb	-0.439895
90	0x3e09c515	0.13454087
91	0xbe2ae2e5	-0.16688116
92	0xbd1d2556	-0.038365684
93	0xbf667eca	-0.90037215
94	0x3f446dd0	0.7673006
95	0x3e03bbc0	0.1286459
96	0x3d62e6e3	0.055395972
97	0xbd9176e7	-0.07102757
98	0xbc7b77cc	-0.015348386
99	0x3e61da31	0.2205589
100	0xbef28cb4	-0.47372973
101	0xbdb173be	-0.08664654
102	0x3e5a9730	0.21346736
103	0x3cc6254b	0.024187705
104	0x3d9ea74b	0.07746752
105	0x3db6fa1e	0.08934425
106	0x3e9fdb0a	0.312218
107	0x3d655cd1	0.05599672
108	0x3d8ac9e3	0.06776788
109	0x3e789513	0.24275617
110	0xbdf04abf	-0.11733007
111	0x3de5992b	0.11210855
112	0x3f38125d	0.7190302
113	0x3dcf8eeb	0.10134681
114	0xbe4ad68c	-0.19808406
115	0x3fa9e7fb	1.327392
116	0xbedc20f9	-0.42993906
117	0xbd7e50b4	-0.062088683
118	0x3fd1577e	1.6354825
119	0x3d37a237	0.044832435
120	0xbd74764a	-0.05968312
121	0x3c8d3fa7	0.017242266
122	0x3e9805d2	0.2969194
123	0x3e0579b6	0.1303471
124	0x3d6f0fcb	0.05836467
125	0x3d255bc2	0.04037071
126	0xbf44815e	-0.767599
127	0x3c6c0c69	0.014407256
128	0x3ea4ba8e	0.3217358
129	0xbd9c41ed	-0.07629762
130	0x3cbb5781	0.022868874
131	0x3e24235c	0.16029114
132	0x3d8046da	0.06263514
133	0x3d9b9dc4	0.07598451
134	0x3cc71c31	0.024305435
135	0x3d8aa67b	0.06770035
136	0xbdbcd0f6	-0.09219544
137	0xbeac24a8	-0.33621716
138	0x3e9f4e2c	0.31114328
139	0xbda27f0f	-0.07934391
140	0x3c02bcb0	0.007979557
141	0xbf55e5a3	-0.8355352
142	0xbdf91252	-0.121616974
143	0x3e6dddec	0.23229188

depthwise_conv2d_1/Bias f4 [16]
0	0x3f03889b	0.5138032
1	0xbe114c8b	-0.14189355
2	0x3cf984db	0.030458858
3	0xbf2f1b3c	-0.6840093
4	0x3f1408d8	0.57825994
5	0x3f111b68	0.56682444
6	0x3f150059	0.58203655
7	0xbf022578	-0.5083842
8	0xbf1386e3	-0.57627696
9	0x3e4aca05	0.19803627
10	0x3eb5f689	0.35539654
11	0xbe91882e	-0.2842421
12	0x3fc57c3b	1.5428537
13	0x3f8efbed	1.1170632
14	0x3f9911b5	1.1958529
15	0xbf3bdc63	-0.7338316

p_re_lu_4/Alpha f4 [1, 1, 16]
0	0xbd7d47ea	-0.06183616
1	0x3ef40194	0.47657454
2	0xbf2f2a96	-0.68424356
3	0xbed5d328	-0.41762662
4	0x3e6b178c	0.22958201
5	0x3eb7323d	0.35780516
6	0x3ef19d98	0.47190547
7	0x3fb1fa90	1.3904591
8	0xbe29fb6b	-0.16599815
9	0xbcc7f1bf	-0.024407266
10	0xbe45d0f5	-0.19317992
11	0xbf83cad3	-1.0296272
12	0x3eab6180	0.33472824
13	0x3eb9d09b	0.36291966
14	0x3e85de66	0.2614624
15	0x3df74871	0.12074364

conv2d_4/Kernel f4 [64, 1, 1, 16]
0	0x3e9afd70	0.30271482
1	0x3ee73209	0.4515536
2	0xbe687c98	-0.22703779
3	0x3ee44a52	0.44587952
4	0xbf69ac13	-0.9127819
5	0x38894cf4	6.547003e-05
6	0xbf25a27c	-0.64701056
7	0xbde11897	-0.10991018
8	0x3d1ee85b	0.03879581
9	0xbeabb098	-0.33533168
10	0xbda6b814	-0.08140579
11	0x3e5172bb	0.20453922
12	0x3ea142a2	0.3149615
13	0xbdd77295	-0.10519902
14	0xbe495a9a	-0.19663468
15	0x3d254782	0.0403514
16	0xbb8fa58c	-0.0043837484
17	0x3da864d7	0.08222359
18	0xbcd679fd	-0.026181215
19	0xbe141850	-0.144624
20	0x3d8f1f04	0.06988338
21	0xbead5402	-0.33853155
22	0xbb4a297e	-0.0030847485
23	0xbe22bf29	-0.15893234
24	0xbdb3f386	-0.08786683
25	0xbd1d67ca	-0.03842906
26	0x3e2b3b66	0.16721877
27	0xbe488676	-0.19582543
28	0x3d9a3493	0.07529559
29	0x3ca6f851	0.020382078
30	0x3baaa85f	0.0052080597
31	0xbcd07a30	-0.025448889
32	0xbede61bb	-0.43433937
33	0x3d1ce55a	0.038304664
34	0x3f0eb98b	0.55751866
35	0x3e8de42f	0.27713153
36	0x3cc9b9fc	0.024624817
37	0xbed799b3	-0.4210945
38	0x3d89b919	0.06724758
39	0x3eedfdff	0.46482846
40	0xbe5ef4be	-0.21773049
41	0xbe24a651	-0.1607907
42	0xbd03c76e	-0.032172613
43	0xbc9b026a	-0.01892205
44	0xbea4f483	-0.32217798
45	0x3e9e1904	0.3087846
46	0xbd97c383	-0.07410338
47	0xbe1b3914	-0.15158492
48	0x3e5ad80c	0.21371478
49	0x3dd8202e	0.10553013
50	0x3e8bf31b	0.27333912
51	0x3dd57d5c	0.10424301
52	0xbe38e186	-0.1805478
53	0x3e0142cc	0.12623137
54	0x3d1a5e46	0.037687562
55	0x3e55920a	0.2085649
56	0xbddc25c4	-0.10749391
57	0xbda0c51c	-0.07850096
58	0xbdbc1163	-0.09183004
59	0x3d9c2437	0.07624095
60	0xbcdce07a	-0.026962508
61	0xbd814af0	-0.06313121
62	0x3ccc9df7	0.024977667
63	0xbe0d93a5	-0.13825853
64	0x3d861580	0.065470695
65	0x3e75c6b5	0.24001582
66	0xbefd59a5	-0.49482456
67	0xbe83542b	-0.25650153
68	0x3f31fd2c	0.69526935
69	0x3f1abb1d	0.6044176
70	0xbcf26a5e	-0.029591735
71	0xbdb6a135	-0.089174666
72	0xbf0b434f	-0.5439958
73	0xbecba034	-0.39770663
74	0xbec78e80	-0.38975906
75	0xbe03fce2	-0.12889436
76	0xbfb87fe1	-1.4414026
77	0xbf033a37	-0.51260704
78	0xbf7bfd1f	-0.9843311
79	0x3db188ff	0.08668708
80	0xbe6a30f7	-0.22870241
81	0xbe607869	-0.21920933
82	0xbe03251f	-0.1280713
83	0xbe5dcb5a	-0.21659604
84	0xbfd63889	-1.6736003
85	0x3de27782	0.110579506
86	0xbf22075d	-0.63292485
87	0xbeeaf4c4	-0.45889866
88	0x3f20ccfd	0.6281279
89	0xbf45cf21	-0.7726918
90	0x3adef2f3	0.001700966
91	0xbe8b1f1b	-0.2717217
92	0x3df321e4	0.118716985
93	0xbc8aeee5	-0.016959617
94	0x3e6a891d	0.22903867
95	0x3d3c99dd	0.046045173
96	0x3e042a97	0.12906872
97	0x3e5bc6a7	0.21462499
98	0xbe048783	-0.12942319
99	0xbd53e703	-0.05173398
100	0xbc861374	-0.016366698
101	0x3dc38a89	0.09547908
102	0x3c798e65	0.015231703
103	0xbd59edce	-0.053205304
104	0x3dba7e65	0.09106139
105	0xbea0d056	-0.31408948
106	0xbe3c5005	-0.183899
107	0x3d9add49	0.07561738
108	0xbe54470b	-0.20730226
109	0x3e045728	0.12923872
110	0xbe5b7cfe	-0.214344
111	0xbdf2de6a	-0.11858828
112	0xbea5409c	-0.32275856
113	0x3e3825b0	0.17983127
114	0x3ec91385	0.39272705
115	0x3f00c79c	0.5030458
116	0x3e783f6d	0.24242945
117	0xbea6debe	-0.32591814
118	0xbd723138	-0.05912897
119	0x3e8bb29b	0.27284703
120	0xbe056cc1	-0.13029768
121	0xbd673b7f	-0.056453224
122	0x3e1ffc33	0.1562355
123	0xbed2c441	-0.41165355
124	0xbc835467	-0.016031457
125	0xbd8ba287	-0.06818109
126	0xbe111040	-0.14166355
127	0x3e2f87eb	0.17141692
128	0x3f48ef1d	0.7848986
129	0x3e515107	0.20441066
130	0xbf1b6d9b	-0.6071412
131	0xbf4e7e9f	-0.8066196
132	0xbf86fad8	-1.0545301
133	0x3e819a9e	0.25313276
134	0x3ef39f3b	0.4758242
135	0xbebb5eb3	-0.36595687
136	0xbe0141d8	-0.12622774
137	0xbf308b5a	-0.68962634
138	0xbf2d79fc	-0.6776426
139	0x3d772e50	0.0603469
140	0x3e9d3661	0.3070555
141	0x3ff9df3c	1.9521251
142	0x3e1037e6	0.14083824
143	0xbf113db3	-0.5673477
144	0xbb67d471	-0.0035374428
145	0xbf28e6f9	-0.65977436
146	0x3e48b30f	0.19599555
147	0xbec32a4c	-0.38118207
148	0x3e7b037a	0.24513045
149	0xbe02e7e6	-0.12783775
150	0x3e6a1015	0.22857697
151	0xbe4e619d	-0.20154424
152	0xbe966e52	-0.29381043
153	0xbe5d1b3f	-0.21592425
154	0x3e8576a0	0.26067066
155	0x3d9dd846	0.077072665
156	0x3ed17212	0.4090734
157	0x3df49d0f	0.11944019
158	0x3e72609f	0.2366967
159	0x3e6edb97	0.23325954
160	0xbc675622	-0.014119657
161	0xbd526e58	-0.051374763
162	0x3b37d0c6	0.0028048023
163	0xbcbb5c10	-0.022871047
164	0xbcae0d53	-0.021246588
165	0xbc8034be	-0.01565015
166	0xbade05bf	-0.0016938968
167	0x3ba596c2	0.005053372
168	0xbc1465fa	-0.009057516
169	0xbc34ae7c	-0.011027928
170	0xbae1ee39	-0.0017237134
171	0xbb849552	-0.0040461207
172	0x3cd45685	0.025920162
173	0xbcee6578	-0.029101118
174	0xbc4bfb69	-0.012450078
175	0xbc923f61	-0.017852487
176	0xbf2e0fee	-0.67993057
177	0xbeff166f	-0.49821803
178	0xbd2f6ee4	-0.042830363
179	0xbe554f68	-0.20831072
180	0x3e436879	0.19082822
181	0x3db20526	0.08692388
182	0x3ec8de39	0.39232042
183	0xbe90675d	-0.2820386
184	0xbe80dc3d	-0.25168028
185	0x3e63b626	0.22237453
186	0xbeba4e64	-0.36387932
187	0xbe87a398	-0.26492
188	0x3e8cae8f	0.27476928
189	0x3ee4f713	0.44719753
190	0xbfe42649	-1.7824184
191	0x3e1cb890	0.1530478
192	0x3d4a17e9	0.04933921
193	0xbcd009b9	-0.025395261
194	0x3e49c17a	0.19702712
195	0xbce6a67a	-0.028155554
196	0xbd3ce69c	-0.046118364
197	0xbd933803	-0.07188418
198	0xbd7c96f6	-0.061667405
199	0x3db24391	0.087042935
200	0xbd4d41d6	-0.050111614
201	0xbd3d2237	-0.046175208
202	0x3c4e3e0f	0.012588038
203	0xbd882ef5	-0.06649581
204	0xbcdb6b67	-0.026784612
205	0x3dd146b0	0.10218561
206	0x3c696d3c	0.014247235
207	0xbe07bf40	-0.1325655
208	0xbf2ccc59	-0.6749931
209	0xbe4ddc2a	-0.20103517
210	0x3eba64c7	0.36405012
211	0xbe72a5fa	-0.23696128
212	0x3f21f4b4	0.6326401
213	0xbecf5ed6	-0.40502042
214	0x3f307ef4	0.68943715
215	0x3ea4e3a0	0.32204914
216	0x3e07b9d6	0.13254485
217	0x3df989dd	0.121844985
218	0x3e608077	0.21924005
219	0xbedb239c	-0.42800605
220	0x3b7a4309	0.0038186929
221	0x3dc6dd69	0.097101994
222	0xbe0307a1	-0.12795879
223	0x3eb13fab	0.34618887
224	0xbdf3dcdd	-0.11907361
225	0x3c285986	0.01027525
226	0xbd49d2bb	-0.049273234
227	0x3ed48f51	0.41515592
228	0xbf7166a3	-0.94297236
229	0x3d83fcca	0.064447
230	0xbee5f543	-0.44913682
231	0x3e674b41	0.22587301
232	0xbe74169e	-0.23836753
233	0x3de1f17a	0.11032386
234	0xbe4a2780	-0.1974163
235	0xbe81c61f	-0.25346467
236	0xbe8b8c1c	-0.27255332
237	0xbf17d8fb	-0.5931546
238	0x3e3affdf	0.1826167
239	0xbd4c134d	-0.049823094
240	0x3e1c46b8	0.15261352
241	0xbe6fbc67	-0.23411714
242	0xbeed3a5e	-0.46333593
243	0xbe504a1c	-0.2034077
244	0xbe779bd4	-0.24180537
245	0x3e044158	0.12915552
246	0x3dbb504b	0.09146174
247	0xbeb71688	-0.35759377
248	0xbe04579f	-0.1292405
249	0xbd86a422	-0.065742746
250	0xbca9a092	-0.020706449
251	0xbd82ddd6	-0.06389968
252	0xbe385951	-0.18002822
253	0x3d04ea12	0.03244979
254	0x3eaa6e3c	0.33287227
255	0xbe8941d4	-0.26808035

conv2d_4/Bias f4 [64]
0	0x3f4610d4	0.7736943
1	0xbe0a6d3a	-0.13518229
2	0x3e63858c	0.22218913
3	0xbf0885fe	-0.53329456
4	0x403c67ce	2.9438357
5	0x40070853	2.109883
6	0x3e0ff331	0.14057614
7	0x3f09ccf6	0.5382837
8	0xbf9d8dbd	-1.230888
9	0xbf683174	-0.9070046
10	0xbf6447b6	-0.8917192
11	0x3fb41115	1.4067713
12	0x3e39f85e	0.18161151
13	0xbe534d69	-0.20634998
14	0x3febbc55	1.8416849
15	0x3f15dfa8	0.585444
16	0xbf1cf7ef	-0.61315817
17	0xbf6383a6	-0.88872755
18	0x3fc911fa	1.5708611
19	0xbf3ee845	-0.74573165
20	0xbdeeeee0	-0.116666555
21	0xbf785c03	-0.970154
22	0x3f5754ad	0.8411358
23	0xbde43f6e	-0.11144911
24	0x3ed0d729	0.40789154
25	0x3f453232	0.77029717
26	0x3d91df4d	0.07122669
27	0xbe4c05fa	-0.19924155
28	0x3d4989dd	0.049203742
29	0x401fffa2	2.4999776
30	0x3f8ca8f5	1.0989062
31	0x3ea0e9f1	0.31428483
32	0xbf90acb5	-1.1302706
33	0x3f8aff15	1.0859095
34	0xbe1169f9	-0.14200582
35	0xbec67c9a	-0.38766938
36	0xbeb3642e	-0.3503737
37	0xbf73f18d	-0.9529045
38	0x3f1345d9	0.57528454
39	0x3fb68e73	1.4262222
40	0x3f2bcd9a	0.671106
41	0x3f932cca	1.1498044
42	0xbf1fce60	-0.6242428
43	0x3e91b42a	0.28457767
44	0x3ee1eb7b	0.4412497
45	0x3eef082f	0.4668593
46	0x3fad09ea	1.351865
47	0xbef838f2	-0.48480946
48	0xbf8ab3ca	-1.0836117
49	0x3f1c25ac	0.6099498
50	0xbfde5fa6	-1.737294
51	0x3db5f991	0.08885492
52	0x3f36076e	0.71105087
53	0x3eb3bf89	0.35107067
54	0x3edc806c	0.43066728
55	0x3ee57ed0	0.44823313
56	0x3fa2214f	1.2666415
57	0x3f8f4dd5	1.1195627
58	0x3fa919b0	1.3210964
59	0x3f831bba	1.0242836
60	0xbea4ff76	-0.3222615
61	0x4007fed6	2.124929
62	0xbf847395	-1.0347773
63	0xbf6df521	-0.9295216
